…
	gpu=1
	grad_clip_norm=None
	init_method=default
	init_range=0.02
	item_batch_size=1024
	learner=adam
	learning_rate=0.001
	num_threads=10
	num_workers=8
	sampling_method=none
	sampler=uniform
	negative_count=None
	excluding_hist=False
	scheduler=onplateau
	scheduler_patience=2
	scheduler_factor=0.5
	seed=2022
	weight_decay=0.0
	tensorboard_path=None
	use_wandb=False
	wandb_project=None
	wandb_count=0
[2023-06-07 11:47:24] INFO save_dir:./saved/
[2023-06-07 11:47:24] INFO NARM_Feat(
  (score_func): InnerProductScorer()
  (loss_fn): SoftmaxLoss()
  (item_encoder): NARMFeatItemEncoder(
    (item_emb): Embedding(518328, 128, padding_idx=0)
    (brand_embedding): Embedding(68941, 128, padding_idx=0)
    (material_embedding): Embedding(15127, 128, padding_idx=0)
    (author_embedding): Embedding(10517, 128, padding_idx=0)
  )
  (query_encoder): NARMQueryEncoder(
    (item_encoder): NARMFeatItemEncoder(
      (item_emb): Embedding(518328, 128, padding_idx=0)
      (brand_embedding): Embedding(68941, 128, padding_idx=0)
      (material_embedding): Embedding(15127, 128, padding_idx=0)
      (author_embedding): Embedding(10517, 128, padding_idx=0)
    )
    (gru_layer): Sequential(
      (0): Dropout(p=0.25, inplace=False)
      (1): GRULayer(
        (gru): GRU(128, 256, bias=False, batch_first=True)
      )
    )
    (A_1): Linear(in_features=256, out_features=256, bias=False)
    (A_2): Linear(in_features=256, out_features=256, bias=False)
    (gather_layer): SeqPoolingLayer(pooling_type=last, keepdim=False)
    (attn_layer): AttentionLayer(
      (mlp): Sequential(
        (0): MLPModule(
          (model): Sequential(
            (0): Dropout(p=0.0, inplace=False)
            (1): Linear(in_features=512, out_features=256, bias=False)
            (2): Sigmoid()
          )
        )
        (1): Linear(in_features=256, out_features=1, bias=True)
      )
    )
    (fc): Sequential(
      (0): Dropout(p=0.5, inplace=False)
      (1): Linear(in_features=512, out_features=128, bias=False)
    )
  )
)
[2023-06-07 11:47:24] INFO GPU id [1] are selected.
[2023-06-07 11:58:24] INFO Training: Epoch=  0 [mrr@100=0.1214 recall@100=0.3712 precision@100=0.0037 ndcg@100=0.1708 train_loss_0=9.2600]
[2023-06-07 11:58:24] INFO Train time: 644.99658s. Valid time: 7.68405s. GPU RAM: 11.97/39.39 GB
[2023-06-07 11:58:24] INFO Current learning rate : 0.001
…
