…
	epochs=300
	gpu=0
	grad_clip_norm=None
	init_method=default
	init_range=0.02
	item_batch_size=1024
	learner=adam
	learning_rate=0.00075
	num_threads=10
	num_workers=8
	sampling_method=none
	sampler=uniform
	negative_count=None
	excluding_hist=False
	scheduler=onplateau
	scheduler_patience=2
	scheduler_factor=0.5
	seed=2022
	weight_decay=0.0
	tensorboard_path=None
	use_wandb=False
	wandb_project=None
	wandb_count=0
	pretrained_embed_file=None
[2023-05-30 01:51:32] INFO save_dir:./saved/
[2023-05-30 01:51:32] INFO SeqMLP(
  (score_func): InnerProductScorer()
  (loss_fn): SoftmaxLoss()
  (item_encoder): Embedding(500181, 256, padding_idx=0)
  (query_encoder): MLPQueryEncoder(
    (item_encoder): Embedding(500181, 256, padding_idx=0)
    (hidden_layers): MLPModule(
      (model): Sequential(
        (0): Dropout(p=0.15, inplace=False)
        (1): Linear(in_features=2560, out_features=768, bias=True)
        (2): BatchNorm1d(768, eps=1e-05, momentum=0.1, affine=True, track_running_stats=True)
        (3): ReLU()
        (4): Dropout(p=0.15, inplace=False)
        (5): Linear(in_features=768, out_features=768, bias=True)
        (6): BatchNorm1d(768, eps=1e-05, momentum=0.1, affine=True, track_running_stats=True)
        (7): ReLU()
        (8): Dropout(p=0.15, inplace=False)
        (9): Linear(in_features=768, out_features=768, bias=True)
        (10): BatchNorm1d(768, eps=1e-05, momentum=0.1, affine=True, track_running_stats=True)
        (11): ReLU()
        (12): Dropout(p=0.15, inplace=False)
        (13): Linear(in_features=768, out_features=256, bias=True)
        (14): BatchNorm1d(256, eps=1e-05, momentum=0.1, affine=True, track_running_stats=True)
      )
    )
  )
)
[2023-05-30 01:51:32] INFO GPU id [0] are selected.
[2023-05-30 02:02:43] INFO Training: Epoch=  0 [mrr@100=0.0061 recall@100=0.0181 precision@100=0.0002 ndcg@100=0.0083 train_loss_0=13.8188]
[2023-05-30 02:02:43] INFO Train time: 648.87091s. Valid time: 7.02843s. GPU RAM: 10.59/39.39 GB
[2023-05-30 02:02:43] INFO Current learning rate : 0.00075
…
