…
	init_method=default
	init_range=0.02
	item_batch_size=500000
	learner=adam
	learning_rate=0.001
	num_threads=10
	num_workers=8
	sampling_method=none
	sampler=uniform
	negative_count=None
	excluding_hist=False
	scheduler=onplateau
	scheduler_patience=2
	scheduler_factor=0.5
	seed=2022
	weight_decay=0.0
	tensorboard_path=None
	use_wandb=False
	wandb_project=None
	wandb_count=0
	pretrained_embed_file=None
[2023-06-01 11:35:03] INFO save_dir:./saved/
[2023-06-01 11:35:03] INFO SASRec_Next_Feat(
  (score_func): InnerProductScorer()
  (loss_fn): SoftmaxLoss()
  (item_encoder): SASRecFeatItemEncoder(
    (item_emb): Embedding(395010, 128, padding_idx=0)
    (brand_embedding): Embedding(48697, 128, padding_idx=0)
    (material_embedding): Embedding(15408, 128, padding_idx=0)
    (author_embedding): Embedding(11560, 128, padding_idx=0)
  )
  (query_encoder): SASRecQueryEncoder(
    (item_encoder): SASRecFeatItemEncoder(
      (item_emb): Embedding(395010, 128, padding_idx=0)
      (brand_embedding): Embedding(48697, 128, padding_idx=0)
      (material_embedding): Embedding(15408, 128, padding_idx=0)
      (author_embedding): Embedding(11560, 128, padding_idx=0)
    )
    (position_emb): Embedding(11, 128)
    (transformer_layer): TransformerEncoder(
      (layers): ModuleList(
        (0): TransformerEncoderLayer(
          (self_attn): MultiheadAttention(
            (out_proj): NonDynamicallyQuantizableLinear(in_features=128, out_features=128, bias=True)
          )
          (linear1): Linear(in_features=128, out_features=256, bias=True)
          (dropout): Dropout(p=0.5, inplace=False)
          (linear2): Linear(in_features=256, out_features=128, bias=True)
          (norm1): LayerNorm((128,), eps=1e-12, elementwise_affine=True)
          (norm2): LayerNorm((128,), eps=1e-12, elementwise_affine=True)
          (dropout1): Dropout(p=0.5, inplace=False)
          (dropout2): Dropout(p=0.5, inplace=False)
        )
        (1): TransformerEncoderLayer(
          (self_attn): MultiheadAttention(
            (out_proj): NonDynamicallyQuantizableLinear(in_features=128, out_features=128, bias=True)
          )
          (linear1): Linear(in_features=128, out_features=256, bias=True)
          (dropout): Dropout(p=0.5, inplace=False)
          (linear2): Linear(in_features=256, out_features=128, bias=True)
          (norm1): LayerNorm((128,), eps=1e-12, elementwise_affine=True)
          (norm2): LayerNorm((128,), eps=1e-12, elementwise_affine=True)
          (dropout1): Dropout(p=0.5, inplace=False)
          (dropout2): Dropout(p=0.5, inplace=False)
        )
        (2): TransformerEncoderLayer(
          (self_attn): MultiheadAttention(
            (out_proj): NonDynamicallyQuantizableLinear(in_features=128, out_features=128, bias=True)
          )
          (linear1): Linear(in_features=128, out_features=256, bias=True)
          (dropout): Dropout(p=0.5, inplace=False)
          (linear2): Linear(in_features=256, out_features=128, bias=True)
          (norm1): LayerNorm((128,), eps=1e-12, elementwise_affine=True)
          (norm2): LayerNorm((128,), eps=1e-12, elementwise_affine=True)
          (dropout1): Dropout(p=0.5, inplace=False)
          (dropout2): Dropout(p=0.5, inplace=False)
        )
      )
    )
    (dropout): Dropout(p=0.5, inplace=False)
    (training_pooling_layer): SeqPoolingLayer(pooling_type=last, keepdim=False)
    (eval_pooling_layer): SeqPoolingLayer(pooling_type=last, keepdim=False)
  )
)
[2023-06-01 11:35:03] INFO GPU id [0] are selected.
…
