…
	grad_clip_norm=None
	init_method=default
	init_range=0.02
	item_batch_size=1024
	learner=adam
	learning_rate=0.001
	num_threads=10
	num_workers=8
	sampling_method=none
	sampler=uniform
	negative_count=None
	excluding_hist=False
	scheduler=onplateau
	scheduler_patience=2
	scheduler_factor=0.5
	seed=2022
	weight_decay=0.0
	tensorboard_path=None
	use_wandb=False
	wandb_project=None
	wandb_count=0
[2023-06-03 03:05:49] INFO save_dir:./saved/
[2023-06-03 03:05:49] INFO GRU4Rec_Next_Feat(
  (score_func): InnerProductScorer()
  (loss_fn): SoftmaxLoss()
  (item_encoder): GRU4RecFeatItemEncoder(
    (item_emb): Embedding(518328, 128, padding_idx=0)
    (brand_embedding): Embedding(68941, 128, padding_idx=0)
    (material_embedding): Embedding(15127, 128, padding_idx=0)
    (author_embedding): Embedding(10517, 128, padding_idx=0)
    (item_text_emb): Embedding(518328, 768, padding_idx=0)
    (item_text_mlp): MLPModule(
      (model): Sequential(
        (0): Dropout(p=0.0, inplace=False)
        (1): Linear(in_features=768, out_features=128, bias=True)
      )
    )
  )
  (query_encoder): VStackLayer(
    (0): HStackLayer(
      (0): Sequential(
        (0): GRU4RecFeatItemEncoder(
          (item_emb): Embedding(518328, 128, padding_idx=0)
          (brand_embedding): Embedding(68941, 128, padding_idx=0)
          (material_embedding): Embedding(15127, 128, padding_idx=0)
          (author_embedding): Embedding(10517, 128, padding_idx=0)
          (item_text_emb): Embedding(518328, 768, padding_idx=0)
          (item_text_mlp): MLPModule(
            (model): Sequential(
              (0): Dropout(p=0.0, inplace=False)
              (1): Linear(in_features=768, out_features=128, bias=True)
            )
          )
        )
        (1): Dropout(p=0.5, inplace=False)
        (2): GRULayer(
          (gru): GRU(128, 256, num_layers=2, bias=False, batch_first=True)
        )
      )
      (1): LambdaLayer()
    )
    (1): SeqPoolingLayer(pooling_type=last, keepdim=False)
    (2): Linear(in_features=256, out_features=128, bias=True)
  )
)
[2023-06-03 03:05:49] INFO GPU id [0] are selected.
[2023-06-03 03:15:55] INFO Training: Epoch=  0 [mrr@100=0.1942 recall@100=0.5931 precision@100=0.0059 ndcg@100=0.2734 train_loss_0=6.8042]
[2023-06-03 03:15:55] INFO Train time: 593.99089s. Valid time: 7.25956s. GPU RAM: 13.95/23.70 GB
[2023-06-03 03:15:55] INFO Current learning rate : 0.001
[2023-06-03 03:16:02] INFO Best model checkpoint saved in ./saved/GRU4Rec_Next_Feat/kdd_cup_2023_DE/2023-06-03-03-05-40.ckpt.
…
